TRAINED/bulk-modulus.pt (torch, 558895 bytes, 52 tensors)

embed_n.weight f4 [64, 92]
0	0xba5c22dc	-0.00083975284
1	0x3c0ae1f9	0.008476728
2	0xbd3500fc	-0.044190392
3	0x3c479ad8	0.012182914
4	0x3e3875bd	0.18013664
5	0x3d33952c	0.043843433
6	0xbe209322	-0.15681127
7	0xbd1aed48	-0.037823945
8	0x3cef0907	0.02917911
9	0x3dac0806	0.08399968
10	0xbbfa07ba	-0.0076303156
11	0xbd86f2c6	-0.06589274
12	0xbc7c3bc4	-0.015395109
13	0xbdd59306	-0.10428433
14	0xbce765d2	-0.028246794
15	0x3d9a2b69	0.07527811
16	0xbcf84603	-0.030306822
17	0xbd1e207f	-0.03860521
18	0xbd2abc3a	-0.041683413
19	0x3c8d6036	0.017257791
20	0xbdeccf58	-0.11562985
21	0xbc701e14	-0.014655609
22	0x3c92dd6e	0.017927852
23	0x3d484c7b	0.048901062
24	0x3d6c79bd	0.057733286
25	0xbb044721	-0.0020183998
26	0x3e38c74f	0.1804478
27	0xbe31eb22	-0.17374852
28	0x3d76867a	0.06018684
29	0xbaa7b708	-0.0012795636
30	0x3d6f7da2	0.058469422
31	0xbda23483	-0.07920172
32	0x3d81012d	0.062990524
33	0x3dd19461	0.10233379
34	0xbd20a1c2	-0.039216764
35	0x3d755303	0.05989362
36	0x3cd0a82a	0.025470812
37	0xbd83b2cd	-0.06430588
38	0x3d148234	0.036256984
39	0x3d9a1a88	0.07524592
40	0xbda2ce32	-0.07949485
41	0x3d3e675d	0.046485294
42	0x3d6d5e51	0.057951275
43	0x3d1572ee	0.03648656
44	0xbe3622cc	-0.17786711
45	0x3e83b5a3	0.25724515
46	0xbd44f8bc	-0.048088774
47	0xbd9a3f80	-0.07531643
48	0xbc7ee419	-0.015557312
49	0x3dcd4442	0.10022785
50	0x3dec19e4	0.11528376
51	0xbdeb93a7	-0.11502772
52	0xbd063cfc	-0.032773003
53	0x3cf3b5a5	0.0297497
54	0x3d12696f	0.03574508
55	0x3d927077	0.07150357
56	0x3d0afb5e	0.03393113
57	0x3d1c0da4	0.038098946
58	0x3e58e473	0.21180896
59	0x3cd9930d	0.026559377
60	0xbce1eb38	-0.027577981
61	0xbc786e9f	-0.015163093
62	0x3c703f6e	0.01466356
63	0x3cee1429	0.029062347
64	0xba243a41	-0.0006264784
65	0x3d4d9bd1	0.050197426
66	0xb896fa7a	-7.199212e-05
67	0x3d4227af	0.047401126
68	0xbbc9ec5a	-0.0061622085
69	0xbd25bb3b	-0.04046176
70	0x3e55b077	0.20868097
71	0xbce5643a	-0.028001893
72	0x3cb148d2	0.021641169
73	0x3d3bf5d2	0.04588873
74	0x3d4567d8	0.048194736
75	0x3da39b32	0.079885855
76	0xbd37a370	-0.0448336
77	0x3cf7330a	0.030175705
78	0xbd595189	-0.053056274
79	0x3c87ac12	0.016561542
80	0x3d80a0a2	0.06280638
81	0x3d062cfe	0.03275775
82	0xbd4893e3	-0.04896916
83	0xbd8b502d	-0.06802402
84	0x3e109e6e	0.14122936
85	0xbda4fa1f	-0.08055519
86	0xbd1c4e01	-0.038160328
87	0x3da5a6d2	0.08088459
88	0xbd1ba688	-0.038000613
89	0xbddb9919	-0.107225604
90	0x3dfed240	0.12442446
91	0x3d95f0b5	0.07321302
92	0xbd406d6e	-0.04697936
93	0xbd2aa112	-0.041657515
94	0x3cd7f827	0.026363445
95	0xbd955c38	-0.0729298
96	0xbbe51251	-0.006990709
97	0xbc09ba80	-0.0084062815
98	0x3da47b98	0.08031386
99	0x3cdfa7f7	0.027301772
100	0x3d42472c	0.047431156
101	0x3c8b83d7	0.01703064
102	0x3ca2bfc6	0.019866835
103	0xbd8ae34c	-0.06781635
104	0xbc7391c4	-0.014866296
105	0xbaa4f0ba	-0.0012583949
106	0x3d53484b	0.051582616
107	0xbd709b43	-0.05874182
108	0xbd03ede4	-0.032209292
109	0x3c1e9e9d	0.009681371
110	0xbb3e65f8	-0.0029052477
111	0xbd8c4be5	-0.06850413
112	0xbdbad8f6	-0.09123413
113	0xba0fffbb	-0.0005493124
114	0xbc5dc376	-0.013535371
115	0x3dc4daf9	0.09612078
116	0x3ddfaa12	0.1092111
117	0x3d49be7f	0.049253937
118	0xbab40aa2	-0.0013736079
119	0xbcc6cbc0	-0.024267077
120	0x3d0b09b8	0.033944815
121	0x3d801350	0.062536836
122	0x3d4faa05	0.050699253
123	0xb9aaa919	-0.00032550914
124	0xbd03a4ce	-0.032139592
125	0xbdce06cb	-0.100598894
126	0xbd2b6bc2	-0.041850813
127	0xbdb0dc38	-0.086357534
128	0xbe1aba1d	-0.15110059
129	0xbda3b8c4	-0.079942256
130	0xbbca10e0	-0.0061665624
131	0x3c25a164	0.010109279
132	0x3c8574c6	0.016291033
133	0x3d92bc3b	0.07164808
134	0xbd190068	-0.037353903
135	0x3d8952c9	0.06705243
136	0xbcc67e50	-0.024230152
137	0x3db431e0	0.087985754
138	0xbdc44c89	-0.095849104
139	0xbd3ef5df	-0.0466212
140	0x3cc90f35	0.024543384
141	0xbb7d7014	-0.003867154
142	0xbd29dd06	-0.04147055
143	0xbd2d6d1f	-0.042340394
144	0xbd6c30e5	-0.057663817
145	0x3dd419e7	0.10356503
146	0xbb356d61	-0.0027683603
147	0x3ca688b5	0.020328859
148	0xbdf85653	-0.1212584
149	0xbdb05ddf	-0.086116545
150	0xbd0395a6	-0.032125138
151	0x3de6e808	0.11274725
152	0xbb209098	-0.0024500247
153	0x3c3c8d9c	0.011508372
154	0x3d800742	0.06251384
155	0xbda4a747	-0.08039718
156	0xbdc35ce8	-0.09539205
157	0xbbf5741f	-0.0074906494
158	0xbce7dc7a	-0.028303374
159	0xbd12d922	-0.035851605
160	0xbd76f498	-0.060291857
161	0x3d10e8aa	0.035378136
162	0xbd97303d	-0.073822476
163	0xbc0f37dc	-0.008741345
164	0x3d5ac519	0.053410623
165	0x3e1e2285	0.15442856
166	0xbd013348	-0.031543046
167	0xbc3105e7	-0.01080463
168	0x3d5b5fb7	0.053558078
169	0xbdaf6bbb	-0.0856547
170	0xbcb3df53	-0.021957075
171	0xbcb22d47	-0.021750106
172	0xbcd230d6	-0.025658052
173	0xbc951458	-0.018198177
174	0x3d0a7291	0.033800665
175	0x3d05308f	0.032517012
176	0xbc09a870	-0.008401975
177	0x3dae201b	0.085022174
178	0xbda9732d	-0.08273921
179	0x3d3f4bb3	0.04670305
180	0x3ce66705	0.028125295
181	0x3da84c31	0.08217657
182	0xbc771076	-0.015079608
183	0x3db71eb8	0.08941406
184	0xbcfd6afc	-0.030934803
185	0x3e4d6ce0	0.20061064
186	0xbc15e699	-0.009149217
187	0x3c8c8006	0.01715089
188	0x3ce4c26e	0.027924743
189	0xbd5042f1	-0.05084509
190	0xbdc3c43b	-0.09558912
191	0xbe1c709b	-0.1527733
192	0x3ca1c44b	0.01974692
193	0xbd8b2101	-0.06793404
194	0x3d4ba109	0.049714122
195	0x3c8f67bc	0.01750552
196	0x3e82cad0	0.2554536
197	0x3c63e0fa	0.013908619
198	0xbe055d9b	-0.13023989
199	0xbcd70f83	-0.026252514
200	0xbcc8b383	-0.02449966
201	0xbd376277	-0.044771638
202	0xbba3e900	-0.005002141
203	0x3e28086e	0.16409466
204	0xbc5e2579	-0.013558739
205	0x3d17088e	0.036873393
206	0xbbb606f6	-0.005555029
207	0xbd925ad8	-0.07146233
208	0xbdae92be	-0.085240826
209	0x3d46b531	0.04851264
210	0x3df91dbe	0.12163876
211	0x3ca94142	0.020661
212	0xbcc7a75e	-0.0243718
213	0xbc246ad6	-0.010035237
214	0xbc4339d9	-0.011915647
215	0xbd6df509	-0.05809501
216	0x3d6045d5	0.054754097
217	0x3db1ac4c	0.08675441
218	0x3c04b930	0.008100793
219	0x3d428870	0.0474934
220	0x3e209dcd	0.15685196
221	0xbd27f8fb	-0.04100893
222	0xbcdf4701	-0.027255537
223	0x3ce4ab4b	0.02791371
224	0x3ce979e6	0.028500509
225	0xbce00008	-0.027343765
226	0xbd312669	-0.04324952
227	0x3d45378b	0.048148673
228	0x3e8a35fd	0.26994315
229	0xbd4789ff	-0.048715588
230	0x3e71973a	0.23592845
231	0x3c9120fd	0.017715925
232	0x3d257274	0.040392354
233	0xbd9ba567	-0.07599907
234	0xbdb927d6	-0.09040801
235	0xbd6cbeba	-0.05779908
236	0xbd9673c9	-0.07346303
237	0xbb3e72b5	-0.002906007
238	0xbcf43285	-0.029809246
239	0xbc8b7b85	-0.017026672
240	0x3c454553	0.012040454
241	0x3e334774	0.17507726
242	0x3da61268	0.081089795
243	0x3c94bda6	0.018156838
244	0xbcd31fa2	-0.02577192
245	0x3d787af6	0.06066414
246	0xbd3c07a5	-0.045905728
247	0xbc2b9f6b	-0.01047502
248	0x3e0ecab1	0.13944508
249	0xbcd28ba3	-0.02570135
250	0x3d3184c4	0.043339506
251	0x3d3bd169	0.045854006
252	0x3d5ab63e	0.053396456
253	0xbd1e9700	-0.038718224
254	0x3da64a9b	0.081196986
255	0xbd0999b9	-0.033593867

embed_n.bias f4 [64]
0	0x3cc0d227	0.023537708
1	0x3d2d2c90	0.042278826
2	0x3d997917	0.07493799
3	0x3d79f44e	0.061024003
4	0x3c3651e5	0.011127924
5	0x3d828eaa	0.06374867
6	0x3dbd0bdd	0.09230778
7	0xbdb19378	-0.086707056
8	0x3c189e3d	0.009315071
9	0xbdde2bc9	-0.10848195
10	0x3dbd0921	0.09230257
11	0xbc810bc4	-0.01575268
12	0x3ba15cd0	0.004924394
13	0x3d8f5385	0.06998352
14	0x3cce5055	0.02518479
15	0x3d150007	0.03637698
16	0xbda19f8a	-0.07891758
17	0x3d886de9	0.06661589
18	0xbdbdc1b8	-0.092654645
19	0xbdb854d9	-0.090005584
20	0xbda840e7	-0.08215504
21	0xbc88c1e0	-0.01669401
22	0x3d0c7a45	0.034296293
23	0x3dde88c3	0.10865929
24	0xbdab5300	-0.0836544
25	0xbd4e80b9	-0.05041573
26	0xba814096	-0.0009861167
27	0x3d29fb7b	0.041499596
28	0xbcd6b982	-0.026211504
29	0x3aa57d06	0.0012625761
30	0x3d054818	0.032539457
31	0x3d9bd94d	0.07609806
32	0xbc358af0	-0.011080489
33	0xb88f26e3	-6.8260146e-05
34	0x3d6dbfd7	0.05804428
35	0xbd19034d	-0.037356663
36	0xbd3ba806	-0.045814537
37	0xbd024d78	-0.03181216
38	0x3cba2789	0.02272393
39	0x3d96d87c	0.0736551
40	0xbcfe14a1	-0.031015696
41	0x3c95e2de	0.018296655
42	0x3d144141	0.036195043
43	0xbce0d48b	-0.027445098
44	0xbd300fcb	-0.04298381
45	0x3a6d6080	0.0009055212
46	0xbd118f60	-0.035537124
47	0x3d481855	0.04885133
48	0xbd1cfbf1	-0.038326208
49	0xbd32c7b1	-0.04364747
50	0xbc286d9a	-0.010280037
51	0x3ce66425	0.028123925
52	0xbcc8a8c5	-0.024494538
53	0xbd1e7d94	-0.03869398
54	0xbd4fdd77	-0.050748315
55	0x3d52a18c	0.051423594
56	0xbd8019b7	-0.06254905
57	0xbcd23053	-0.025657808
58	0xbcf6c70f	-0.030124215
59	0x3da5772e	0.08079372
60	0xbd29af33	-0.04142685
61	0xbc696d08	-0.0142471865
62	0xbe0ee844	-0.1395579
63	0x3d7e38a1	0.062065724

embed_e.weight f4 [64, 41]
0	0xbd4d804e	-0.05017119
1	0x3d5b2605	0.053503055
2	0x3d10764d	0.03526907
3	0x3e9e2e7a	0.30894834
4	0x3eb4ffe1	0.3535147
5	0x3e9d46e4	0.30718148
6	0x3d821bf5	0.06352989
7	0xbe450ebe	-0.19243905
8	0xbdd50915	-0.10402123
9	0x3f035fcf	0.5131807
10	0xbd282e12	-0.04105956
11	0xbeb27a0e	-0.34858745
12	0x3deacea8	0.11465198
13	0xbce51953	-0.027966177
14	0xbdd8e892	-0.10591234
15	0xbcbe4645	-0.023226866
16	0x3d8a49fe	0.06752394
17	0xbe3ab30d	-0.18232365
18	0x3d181286	0.03712704
19	0xb9e37880	-0.00043386593
20	0xbe2d30f8	-0.16913211
21	0x3d61e8ef	0.055153783
22	0xbd086842	-0.033302553
23	0xbe235d18	-0.15953481
24	0xbe56fd06	-0.20994958
25	0x3e198768	0.1499306
26	0x3e56295d	0.20914216
27	0x3d9d6c2e	0.07686649
28	0xbe566f86	-0.2094098
29	0xbc5fd432	-0.013661431
30	0xbd5ec5e4	-0.054387942
31	0xbdb300a5	-0.08740357
32	0xbd24e7d3	-0.040260147
33	0x3c92b206	0.017907154
34	0x3d527b3a	0.05138705
35	0xbd30e1c1	-0.043184046
36	0x3ab8adea	0.0014089916
37	0x3c74a629	0.014932194
38	0xbc3f1fa0	-0.011665255
39	0x3c808b5b	0.01569145
40	0xbc93887c	-0.018009417
41	0x3d5e1ed8	0.054228634
42	0xbda5743c	-0.080788106
43	0xbc5174d5	-0.012784203
44	0xbc5a2d5f	-0.013316481
45	0xbdd3a6a7	-0.10334521
46	0xbcf11485	-0.02942873
47	0xbd8c42e7	-0.06848698
48	0xbd93dff6	-0.072204515
49	0x3d43e02f	0.04782122
50	0x3dd3bdcb	0.103389345
51	0xbd354adf	-0.044260856
52	0x3d94d09a	0.0726635
53	0xbd58a16e	-0.052888326
54	0x3dbdbf17	0.09264963
55	0xbd2581e8	-0.04040709
56	0x3cf2f05d	0.02965563
57	0x3e4141d7	0.18872772
58	0xbd9aa903	-0.07551768
59	0xbe3980d8	-0.18115556
60	0xbd851900	-0.06498909
61	0xbe1198ca	-0.1421844
62	0x3d76ca0d	0.060251284
63	0x3c8352a0	0.01603061
64	0xbd919bae	-0.07109772
65	0xbdac5b77	-0.08415883
66	0x3cc5fe84	0.024169214
67	0xbdf56046	-0.11981253
68	0xbcf8988f	-0.030346183
69	0xbd5a0d7a	-0.05323551
70	0x3cae1918	0.0212522
71	0xbd8e4572	-0.069468394
72	0x3d2473b3	0.040149402
73	0x3d90bbde	0.07067083
74	0xbd94f1a5	-0.072726525
75	0x3bc48acd	0.0059979917
76	0x3b2c876c	0.0026325835
77	0xbbc920e6	-0.006137955
78	0xbcdfb718	-0.027308986
79	0x3ba17e46	0.004928383
80	0x3d1cd007	0.038284328
81	0xbcb246bd	-0.021762246
82	0xbcf75d00	-0.030195713
83	0xbcedbc30	-0.029020399
84	0x3ce7d001	0.028297426
85	0x3ddac02e	0.106811866
86	0x3d8d85cc	0.06910285
87	0xbd861e06	-0.06548695
88	0x3e83c539	0.25736406
89	0x3e7b477c	0.24538988
90	0xba9b817e	-0.0011864153
91	0x3ddcf075	0.10788051
92	0xbdd70397	-0.104987316
93	0xbbb30699	-0.005463433
94	0x3e00a380	0.1256237
95	0x3d36c217	0.044618692
96	0x3dad1760	0.08451724
97	0xbdf0f733	-0.117658995
98	0xbe1b3caf	-0.15159868
99	0x3c91286c	0.01771947
100	0xbe14d915	-0.14535935
101	0x3d9f097c	0.07765481
102	0x3de2ac33	0.11068001
103	0xbc7e2968	-0.015512802
104	0xbdab2d55	-0.08358256
105	0xbe0d3c16	-0.13792452
106	0x3cfa28a5	0.030536959
107	0x3d1b9f04	0.037993446
108	0x3c98e73d	0.01866495
109	0xbdab001d	-0.08349631
110	0xbde6ec5a	-0.11275549
111	0xbc2ef134	-0.0106776245
112	0x3cbe2cb5	0.023214677
113	0x3cf4fabf	0.029904721
114	0xbd08c97d	-0.03339528
115	0xbc083739	-0.008313947
116	0x3d7dbf23	0.06194986
117	0x3d0ac595	0.033879835
118	0x3d4903d5	0.04907592
119	0x3d8b7be3	0.06810739
120	0x3d88dbc6	0.066825435
121	0xbda5ac6c	-0.080895275
122	0xbd6756a7	-0.056479122
123	0x3c8acd6c	0.016943656
124	0x3c02be92	0.007980006
125	0x3cfcba88	0.030850664
126	0xbd13476b	-0.03595678
127	0xbdfaeb49	-0.12251908
128	0x3b1bb5e0	0.002375953
129	0xbd1e77ab	-0.038688343
130	0xbe3dced5	-0.18535931
131	0xbe41aa90	-0.1891272
132	0x3cb1774a	0.021663327
133	0xbc826ddc	-0.015921526
134	0x3d9f8ed4	0.07790914
135	0xbe3412cc	-0.17585295
136	0x3e44c241	0.19214727
137	0x3d2a0ca2	0.041515954
138	0xbe38b1bd	-0.18036552
139	0x3c441e39	0.011970096
140	0xbcb99e44	-0.022658475
141	0xbdd9844b	-0.10620936
142	0xbdb7c1a6	-0.089724824
143	0xba1cdef4	-0.00059841503
144	0xbd16d3bd	-0.036823023
145	0xbdb71169	-0.089388676
146	0xbd1be213	-0.038057398
147	0x3ee59432	0.44839627
148	0x3e6d5121	0.2317548
149	0xbea3da5b	-0.3200253
150	0xbcf1ccb1	-0.02951655
151	0xbd141f98	-0.036162943
152	0x3c93a5fd	0.018023485
153	0xbdca3998	-0.098742664
154	0xbd1e4511	-0.038640086
155	0x3cb4e521	0.022081913
156	0x3bae9806	0.005328181
157	0xbd9923a3	-0.074775
158	0x3c66fcca	0.014098356
159	0xbd631fa3	-0.055450093
160	0xbc5ea103	-0.013588193
161	0xbd7fb0c8	-0.06242445
162	0x3d38672d	0.04502027
163	0x3d5b112a	0.053483166
164	0xbd9bf5a2	-0.0761521
165	0xbd6a26ec	-0.057166025
166	0x3d0d35a6	0.03447499
167	0xbe70c01f	-0.23510788
168	0xbe7f46cb	-0.24929349
169	0xbe45cad9	-0.19315661
170	0xbc303504	-0.010754827
171	0x3d3b965d	0.045797694
172	0xbd812cff	-0.063074104
173	0x3d28c5ef	0.04120439
174	0xbcaf2d38	-0.021383867
175	0x3c80da93	0.015729224
176	0x3da2ad8d	0.079432584
177	0xbccab289	-0.024743335
178	0x3d09b9bb	0.033624392
179	0xbcbf9765	-0.02338762
180	0x3d1ddaba	0.038538672
181	0xbcf3373c	-0.029689424
182	0xbcd95082	-0.026527647
183	0xbd129fca	-0.035796918
184	0xbcdcfe4e	-0.02697673
185	0x3cd6147a	0.02613281
186	0xbb09a476	-0.0021002567
187	0xbcbf021e	-0.02331644
188	0xbe00e8f1	-0.1258886
189	0xbdf83f90	-0.121214986
190	0xbd883bb4	-0.066520125
191	0x3dbe805f	0.093018286
192	0xbdcd3ffc	-0.1002197
193	0xbe238804	-0.15969855
194	0xbc0a3ff7	-0.008438102
195	0x3ab959a3	0.0014141094
196	0x3c3bb699	0.011457109
197	0xbd168d52	-0.036755867
198	0x3c96da6c	0.018414699
199	0xbd912b9a	-0.070883945
200	0x3c13060c	0.00897361
201	0xbd53357e	-0.051564686
202	0xbb985596	-0.0046488745
203	0x3d78430a	0.06061081
204	0xbd666f95	-0.056258757
205	0x3da5136b	0.08060344
206	0x3da9cf5f	0.08291506
207	0x3d646ec3	0.055769693
208	0x3e63d729	0.22250046
209	0xbc671f8c	-0.014106642
210	0xbe3c7627	-0.18404447
211	0xbd3a45eb	-0.045476835
212	0x3d38eb51	0.04514629
213	0x3d28b092	0.041184016
214	0xbd93ba0f	-0.07213222
215	0x3e367a01	0.17819978
216	0x3d3cc431	0.04608554
217	0xbd0e91b1	-0.03480691
218	0x3dfcf3b2	0.12351169
219	0x3e424bb4	0.18974191
220	0xbe412b12	-0.18864086
221	0xbe5965a3	-0.21230178
222	0xbe0a72d9	-0.13520373
223	0xbda7a43e	-0.081856236
224	0x3d47546a	0.048664488
225	0x3dd48741	0.1037736
226	0xbe329ce8	-0.17442667
227	0xbe342746	-0.17593107
228	0x3d540b6e	0.051768713
229	0x3df0c984	0.11757186
230	0xbd5fb0c8	-0.05461195
231	0xbe7e8094	-0.24853736
232	0x3ce40b7d	0.02783751
233	0xbdf3d32e	-0.11905514
234	0xbe5762d1	-0.21033789
235	0xbdaf403c	-0.085571736
236	0x3d3be79f	0.045875188
237	0x3b4bf1da	0.0031119497
238	0x3d793541	0.060841803
239	0xbce1a0dd	-0.027542526
240	0xbda80897	-0.082047634
241	0x3d2cbd75	0.042172868
242	0xbd6beaf1	-0.057597104
243	0x3d2c024c	0.041994378
244	0x3c160f08	0.009158857
245	0xbc948c1d	-0.018133217
246	0xbbdd57cb	-0.0067548505
247	0xbd8d0ff7	-0.06887811
248	0xbd4bcef3	-0.04975791
249	0xbdf6d6ca	-0.120526865
250	0xbe28e950	-0.16495252
251	0xbe292062	-0.1651626
252	0xbc94ddf9	-0.018172251
253	0xbd7687ac	-0.06018798
254	0x3cc6408f	0.024200706
255	0x3e246bcc	0.16056746

embed_e.bias f4 [64]
0	0xbcea380c	-0.028591178
1	0x3d1cf690	0.038321078
2	0xbe2e8ea3	-0.17046599
3	0x3ce92e14	0.028464355
4	0xbd2c7da9	-0.042112026
5	0x3d9d0abc	0.07668063
6	0x3e0e9089	0.13922323
7	0x3c3fa7c9	0.011697718
8	0x3e09470e	0.13406011
9	0x3d23cfcd	0.039993096
10	0x3dcb07df	0.09913611
11	0x3d8d55fe	0.06901167
12	0xbd493914	-0.0491267
13	0x3e57e1dd	0.21082254
14	0x3cab38b5	0.020901063
15	0xbd5e6c38	-0.054302424
16	0x3e11526b	0.14191596
17	0x3cf8b8af	0.030361502
18	0x3bfab421	0.0076508676
19	0x3e311549	0.17293276
20	0x3db7c4a0	0.0897305
21	0xbc0ff4a8	-0.008786358
22	0x3b1dca7b	0.0024076987
23	0x3e265c61	0.16246177
24	0xbe0bd8ff	-0.13656996
25	0x3d83fd91	0.06444848
26	0x3d2fd49e	0.042927377
27	0x3d387b6b	0.045039576
28	0x3da60f0d	0.081083395
29	0x3d3663de	0.044528835
30	0x3c240421	0.01001075
31	0x3e83219c	0.2561158
32	0xbd0282b3	-0.031862926
33	0x3cbe7bfb	0.023252478
34	0x3e34f21c	0.17670482
35	0x3e3ced06	0.18449792
36	0x3d523f1b	0.051329713
37	0xbe16acb8	-0.14714324
38	0x3d99b976	0.07506077
39	0xbdce4929	-0.10072548
40	0x3e48c4f2	0.19606379
41	0x3dcca83c	0.09993026
42	0x3c411a4f	0.011786058
43	0x3dbf7a5b	0.09349509
44	0x3e00ec43	0.12590127
45	0x3de43c77	0.11144345
46	0x3d77d5d7	0.060506668
47	0x3dc1d094	0.09463611
48	0x3dae136a	0.08499797
49	0x3dde539a	0.108557895
50	0x3dac1e70	0.08404243
51	0xbcac24c2	-0.021013621
52	0x3dd56231	0.10419119
53	0x3be3b13f	0.0069486196
54	0x3d45ebd6	0.048320614
55	0x3dab55b3	0.08365955
56	0x3dca9938	0.098925054
57	0xbc533805	-0.012891774
58	0x3dab2afa	0.083578065
59	0xbc815ff9	-0.015792834
60	0x3dfa6254	0.12225786
61	0x3d69fc90	0.057125628
62	0xbb8a2f90	-0.0042170957
63	0x3dca24b8	0.09870285

embed_comp.weight f4 [64, 103]
0	0xbd439be7	-0.047756102
1	0xbcd154e4	-0.025553174
2	0x3cbc9244	0.023018964
3	0x3d76d710	0.060263693
4	0xbdc10dcf	-0.09426462
5	0xbd05b006	-0.032638572
6	0xbd27d65e	-0.04097592
7	0xbcbb6d58	-0.022879288
8	0xbb43f960	-0.0029903278
9	0xbdc352ae	-0.09537254
10	0x3cad4b84	0.021154173
11	0x3d8fd4b4	0.07022992
12	0x3d2bd898	0.041954607
13	0xbdbc432f	-0.09192502
14	0x3d97bab8	0.07408661
15	0x3d0acc8c	0.033886477
16	0xbca1f6dc	-0.019771032
17	0xbd3e6e4d	-0.04649191
18	0x3d9e8fc2	0.077422634
19	0xbda0d934	-0.07853928
20	0x3d315418	0.04329309
21	0xbca53df0	-0.020171136
22	0xbdb7bff7	-0.08972161
23	0xbc8365d0	-0.016039759
24	0x3cc27078	0.02373527
25	0x3c56ead0	0.013117507
26	0x3d7fb49c	0.062428102
27	0xbd1d7201	-0.0384388
28	0xbcfc73d8	-0.030816957
29	0x3d98e2c6	0.074651286
30	0x3daefb86	0.08544068
31	0x3dbff3d0	0.093726754
32	0x3d53ab70	0.051677167
33	0xbca82744	-0.020526536
34	0x3c839274	0.016061045
35	0xbd3e5afd	-0.046473492
36	0x3d9e3678	0.07725233
37	0x3cc2f9cc	0.023800753
38	0x3b154d20	0.0022781566
39	0x3d85e93c	0.065386266
40	0x3d271294	0.0407892
41	0x3dc8940e	0.09793864
42	0x3cdfd418	0.027322814
43	0xbdc79ffd	-0.09747312
44	0x3db9d5c2	0.09073974
45	0x3d2550b4	0.040360168
46	0x3d769710	0.06020266
47	0xbd352adf	-0.04423034
48	0x3c250838	0.01007276
49	0x3b73ac60	0.00371816
50	0xbd2f63d1	-0.0428198
51	0xbd99ab68	-0.07503396
52	0x39692400	0.00022234023
53	0x3d1b1b04	0.03786756
54	0x3d0fcf74	0.035109952
55	0xbd11b680	-0.035574436
56	0xbd54f4e1	-0.051991347
57	0x3d5ed550	0.05440265
58	0x3d747458	0.059681267
59	0xbd141d71	-0.03616089
60	0xbadfa080	-0.0017061383
61	0xbd967f2d	-0.073484756
62	0x3db55212	0.08853544
63	0xbc8eb72c	-0.017421328
64	0x3d9e8288	0.077397406
65	0x3d845f66	0.06463508
66	0x3d1d5a60	0.038416266
67	0x3d1f72c0	0.038927794
68	0x3b01f0c0	0.0019827336
69	0xbcbd9c40	-0.023145795
70	0x3daa3084	0.08310035
71	0x3d337368	0.04381123
72	0x3d2ff32c	0.042956516
73	0x3d78724c	0.060655877
74	0xbd020b8a	-0.031749286
75	0x3dae48ac	0.08509955
76	0xbccbb27c	-0.024865381
77	0x3c79bbe8	0.015242554
78	0xbdc18fc3	-0.094512485
79	0x3c9f449c	0.019441895
80	0x3dbadf64	0.0912464
81	0xbd13e355	-0.036105473
82	0xbc901eb0	-0.017592758
83	0x3d3ff290	0.046862185
84	0x3c623c30	0.013808295
85	0xbd2d8a2f	-0.04236811
86	0x3ce061a0	0.027390301
87	0xbd8fadae	-0.07015549
88	0xbc3a38c0	-0.011366069
89	0x3d2d16a8	0.042257935
90	0x3c8f8b58	0.017522499
91	0xbd450509	-0.048100505
92	0x3dbaa1cc	0.091128916
93	0xbdb1400d	-0.08654795
94	0xbc597888	-0.013273366
95	0xbb77c660	-0.003780745
96	0xbcb04000	-0.021514893
97	0xbdae15c8	-0.08500248
98	0xbda180b4	-0.07885876
99	0xbc63aff0	-0.013896927
100	0xbcb5afb4	-0.022178508
101	0x3d6a8ba8	0.057262093
102	0x3d1df0ac	0.0385596
103	0x3d995336	0.07486574
104	0xbd8a9274	-0.06766215
105	0x3d6af5cc	0.057363316
106	0xbd66b38b	-0.05632357
107	0x3dc02614	0.09382263
108	0x3dc604a0	0.09668851
109	0xbdbb988e	-0.09159957
110	0xbcc1885c	-0.023624592
111	0xbd9e4dc3	-0.077296756
112	0xbda37316	-0.07980935
113	0xbcde1670	-0.027110308
114	0xbda51fd1	-0.08062709
115	0xbd213065	-0.039352793
116	0xbd8cf474	-0.06882563
117	0x3cc5e7bc	0.024158351
118	0xbd6fcaf4	-0.05854316
119	0xbd9814ff	-0.0742588
120	0xbc4578e0	-0.012052745
121	0x3db221c8	0.086978495
122	0x3c8af610	0.016963035
123	0x3d039f44	0.03213431
124	0xbd9d8eee	-0.07693277
125	0xbdbd583a	-0.092453435
126	0x3d99ccac	0.07509741
127	0x3dbbe7f6	0.091751024
128	0xbd9d8ec5	-0.07693247
129	0x3cfd7488	0.030939355
130	0x3d87b616	0.06626527
131	0x3d7ee740	0.062232256
132	0x3d853482	0.06504156
133	0xbd23db5a	-0.04000411
134	0xbdc5f1e4	-0.096652776
135	0x3dbfb246	0.09360175
136	0x3cfd5470	0.030924052
137	0xbd94016e	-0.07226835
138	0x3d8f04be	0.069833264
139	0x3cc8d9d0	0.024517924
140	0x3d83a706	0.064283416
141	0x3c9861dc	0.01860135
142	0xbd41ee5c	-0.047346458
143	0x3d478f88	0.048720866
144	0x3cbfcd84	0.023413427
145	0x3c53a5a0	0.012917906
146	0xbaa5adc0	-0.0012640283
147	0xbccaa654	-0.024737515
148	0xbbf76620	-0.007550016
149	0xbc0d3600	-0.008618832
150	0x3db68b7e	0.08913325
151	0x3ccc0604	0.024905212
152	0x3dbfc506	0.09363751
153	0x3d953a80	0.072865486
154	0xbdadd8db	-0.084886275
155	0x3d729adc	0.059229717
156	0x3da895c4	0.082316905
157	0xbda04186	-0.078249976
158	0x3d1d4dd0	0.038404286
159	0x3d109b94	0.03530462
160	0x3cfa4fc0	0.030555606
161	0x3dc95868	0.09831315
162	0x3dbc02ae	0.091801986
163	0x3dba75e0	0.09104514
164	0x3dc61b2e	0.09673153
165	0x3d37e98c	0.044900462
166	0xbdb73802	-0.089462295
167	0xbdbe8a72	-0.0930375
168	0xbda2ab95	-0.07942883
169	0x3c7ab500	0.015301943
170	0x3b6c69a0	0.00360737
171	0xbd129478	-0.035786122
172	0xbd293f81	-0.041320328
173	0xbdb07029	-0.08615143
174	0x3c04fe88	0.008117326
175	0xbdb0f4ae	-0.08640419
176	0xbd59d701	-0.05318356
177	0xbd42363d	-0.047415007
178	0xbd6b498d	-0.05744319
179	0xbce02da4	-0.027365513
180	0xbdc3378f	-0.09532081
181	0xbd5cf3aa	-0.053943314
182	0x3c9be248	0.019028798
183	0x3bf7aa30	0.0075581297
184	0xbc568768	-0.013093807
185	0xbced689c	-0.028980546
186	0x3d2e642c	0.042576
187	0xbd843ca4	-0.06456879
188	0xbd9aee91	-0.07565034
189	0xbd992456	-0.07477634
190	0xbb6b6c80	-0.0035922825
191	0x3cee98f0	0.02912566
192	0xbdc88c9f	-0.09792446
193	0xbd685d21	-0.05672944
194	0x3dabe0a0	0.08392453
195	0x3d7d05c8	0.06177309
196	0xbd9d9248	-0.076939166
197	0x3d7938ec	0.0608453
198	0xbdb49f6e	-0.08819471
199	0xbd841a32	-0.06450309
200	0x3d997880	0.07493687
201	0xbcdc1990	-0.026867658
202	0x3d4669f4	0.04844089
203	0x3d96de2c	0.07366595
204	0xbd8f8121	-0.07007051
205	0x3cf80200	0.030274391
206	0x3da70ada	0.08156367
207	0x3d6f00a8	0.058350235
208	0x3d2faf04	0.042891517
209	0xbd94e391	-0.07269967
210	0xbdc5c7ba	-0.096572354
211	0xbdac5366	-0.084143445
212	0x3be6a180	0.0070382953
213	0x3bb4be60	0.0055158585
214	0x3d992ee4	0.07479647
215	0x3d7bcf8c	0.06147723
216	0xbce58c08	-0.028020874
217	0xbcb9a82c	-0.022663198
218	0xbd4f2740	-0.05057454
219	0xbce211dc	-0.027596407
220	0x3da40432	0.08008613
221	0x3d862e66	0.065518185
222	0xbc81997c	-0.015820257
223	0x3db7ee38	0.089809835
224	0xbd9e2738	-0.07722324
225	0x3d85de5e	0.06536554
226	0xbd18d61f	-0.037313577
227	0xbd84efed	-0.06491075
228	0xbb0339a0	-0.002002336
229	0xbcd4d2a8	-0.025979355
230	0x3d573440	0.052540064
231	0x3d31c580	0.04340124
232	0x3da75126	0.08169775
233	0xbd0e133a	-0.034686305
234	0x3c9941b0	0.01870808
235	0x3db652c2	0.089025036
236	0xbd06ac7c	-0.032879338
237	0x3d51cbc0	0.0512197
238	0x3dbfd7c2	0.093673244
239	0xbdb6a4e1	-0.08918167
240	0xbc5a9d88	-0.013343222
241	0x3dc2408a	0.09484966
242	0x3d75bcc0	0.05999446
243	0x3c08aa58	0.008341394
244	0x3dbe4532	0.09290542
245	0x3da11cf2	0.07866849
246	0x3d903934	0.07042161
247	0xbb7987a0	-0.0038075224
248	0xbdab2db5	-0.08358327
249	0xbca358b4	-0.019939758
250	0xbdabd48e	-0.08390151
251	0x3da2ab4a	0.07942827
252	0xbdb1d88e	-0.08683883
253	0xbdabed4b	-0.083948694
254	0x3d9267ea	0.07148726
255	0x3bfdbc70	0.0077434108

embed_comp.bias f4 [64]
0	0x3d112100	0.035431862
1	0x39ab6300	0.00032689422
2	0xbd06ced0	-0.032912076
3	0xbd92a5a8	-0.07160503
4	0xbdabe90a	-0.08394058
5	0x3b73ec80	0.0037219822
6	0xbcd6f1fc	-0.026238434
7	0x3dbb7254	0.09152666
8	0x3d5e3424	0.054248944
9	0x3d07b4a0	0.03313124
10	0xbc260c08	-0.010134704
11	0x3aaac440	0.0013028458
12	0x3d564920	0.05231583
13	0x3cd285a0	0.025698483
14	0x3add3e00	0.0016879439
15	0x3c4f4708	0.0126512125
16	0x3db6049a	0.088875964
17	0xbd87d1eb	-0.066318356
18	0xbdb25071	-0.08706749
19	0x3d5a7d10	0.053341925
20	0x3d913fb8	0.070922315
21	0x3dbdb65e	0.092632994
22	0xbd8bc040	-0.06823778
23	0x3ca0da4c	0.019635342
24	0x3ce0d6f0	0.02744624
25	0x3ca2afd8	0.01985924
26	0xbdba0bb5	-0.09084264
27	0x3c721250	0.014774874
28	0x3d18de5c	0.037321433
29	0xbbb922d0	-0.005649902
30	0x3dbbb4ba	0.0916533
31	0x3d94c2a2	0.07263686
32	0xbdc1a4d1	-0.09455264
33	0x3ce9a2c8	0.028520003
34	0x3c3f2788	0.01166714
35	0x3d184b1c	0.037181005
36	0xbd8992a3	-0.06717422
37	0xbda10806	-0.078628585
38	0x3aeea280	0.0018206388
39	0x3d754f6c	0.059890196
40	0x3b2cf060	0.0026388392
41	0xbd23ab77	-0.039958443
42	0x3db73bf6	0.089469835
43	0xbd8f27cf	-0.06990015
44	0x3b8ffdf0	0.0043942854
45	0xbd5293c3	-0.051410448
46	0x3cd4e974	0.025990225
47	0x3d918666	0.071057126
48	0xbdb96474	-0.09052363
49	0x3b40dc20	0.002942808
50	0x3c527e20	0.012847453
51	0xbcc8bf54	-0.024505295
52	0xb7e76000	-2.758205e-05
53	0xbd2437ed	-0.040092397
54	0xbb414f60	-0.0029496774
55	0x3dc1e83c	0.09468123
56	0xbd05c5c2	-0.0326593
57	0xbd8bae00	-0.06820297
58	0x3da70c38	0.081566274
59	0xbcfbde34	-0.030745603
60	0x3ba42160	0.0050088614
61	0xbbe2b200	-0.006918192
62	0x3d9f2f68	0.07772714
63	0x3cabad50	0.020956665

node_att.0.W f4 [128, 256]
0	0xbdc17659	-0.09446401
1	0x3b8acabd	0.004235594
2	0xbc3f2414	-0.011666317
3	0x3cec47b2	0.02884278
4	0x3da29bd3	0.07939877
5	0xbda592c9	-0.08084638
6	0xbdce0a07	-0.10060506
7	0xbcb3e91a	-0.021961737
8	0xbd7fcf32	-0.062453456
9	0xbd1a3181	-0.037644867
10	0x3c96e76e	0.018420901
11	0x3d78fed8	0.060789913
12	0xbba2d65b	-0.004969401
13	0x3c908e16	0.017645877
14	0xbd864876	-0.065567896
15	0x3baf941a	0.0053582313
16	0xbdb6e49e	-0.08930324
17	0x3d2532d4	0.040331677
18	0x3d287aca	0.041132726
19	0xbd785598	-0.060628504
20	0x3c3cf607	0.011533267
21	0x3c2db6da	0.010602677
22	0x3cc56b84	0.024099119
23	0x3d0db2e8	0.034594446
24	0xbd08bb5c	-0.033381805
25	0xbd9cb59e	-0.07651828
26	0xbd2f5a9b	-0.042811017
27	0xbdcf7c3c	-0.10131118
28	0xbe20fc17	-0.15721165
29	0x3da26eb8	0.07931274
30	0x3cfc7e64	0.030821986
31	0xbd001c6d	-0.03127711
32	0x3d4e957d	0.050435532
33	0xbc29311b	-0.010326649
34	0xbd93d4c5	-0.07218317
35	0x3c3e7753	0.011625129
36	0x3d5e55e2	0.054281123
37	0x3dae2812	0.085037366
38	0xbd47efa3	-0.04881252
39	0x3d44e896	0.048073374
40	0x3beac19d	0.007164194
41	0xbd286f4a	-0.04112176
42	0xbdeedd10	-0.11663258
43	0x3ce1d7ac	0.02756866
44	0xbd6d7a84	-0.057978168
45	0xbb7c25f9	-0.0038474782
46	0x3d893975	0.06700412
47	0x3cafd101	0.021461966
48	0xbd5a5f63	-0.053313624
49	0xbb909dd7	-0.004413347
50	0x3e05df6b	0.13073508
51	0xbca5dcda	-0.020246912
52	0x3cbf4864	0.023349948
53	0x3dccef25	0.10006551
54	0xbcb7846e	-0.022402015
55	0xbdb119ea	-0.08647521
56	0xbbbd9398	-0.005785417
57	0xbab53747	-0.0013825678
58	0x3c1f06bf	0.009706198
59	0xbd302497	-0.043003645
60	0xbd84ecb0	-0.06490457
61	0x3d86c451	0.06580413
62	0x3d4d430f	0.05011278
63	0x3c6f7cd7	0.0146171665
64	0xbd7e6838	-0.06211111
65	0x3db6f483	0.08933356
66	0xbac82243	-0.0015269
67	0xbce60fca	-0.0280837
68	0x3de57ab4	0.112050444
69	0x3d254c4d	0.04035597
70	0x3cc3ee0e	0.023917224
71	0x3bf4e638	0.0074737333
72	0xbad4684a	-0.0016205397
73	0x3c9abdd9	0.018889355
74	0xbcc6fb4f	-0.024289755
75	0xbda8a7d2	-0.08235134
76	0x3dc87c55	0.097893395
77	0x3d8d5292	0.06900515
78	0xbd36c8d4	-0.04462512
79	0xbdb7e8f8	-0.08979982
80	0x3d915d46	0.070978686
81	0x3d8e7886	0.06956582
82	0x3d4008ea	0.0468835
83	0xbcd6aa89	-0.026204364
84	0xbd9241e2	-0.071414724
85	0xbd814eca	-0.06313856
86	0x3d463355	0.048388798
87	0xbcca5f4c	-0.024703644
88	0x3df69e07	0.1204186
89	0xbd817317	-0.0632078
90	0xbd6d68b2	-0.057961173
91	0xbc14132c	-0.009037774
92	0x3a7de34c	0.0009685054
93	0xbdddbd2e	-0.10827099
94	0x3d78bea6	0.06072869
95	0x3d1faf7e	0.03898572
96	0xbd8d8b98	-0.06911391
97	0xbcc7bd1e	-0.02438217
98	0xbd2c9224	-0.042131558
99	0x3d81a818	0.063308895
100	0xbd08c363	-0.03338946
101	0xbd44a8d1	-0.04801256
102	0xbc4c6942	-0.012476267
103	0x3c2eab6c	0.010660987
104	0xbd6a3e0e	-0.057188086
105	0x3d6d3c7d	0.057919014
106	0xbc226d98	-0.0099138245
107	0x3cebbe1c	0.028777175
108	0xbd8495e1	-0.064739
109	0xbcb64f1f	-0.022254525
110	0x3b594c88	0.0033157188
111	0x3d552642	0.05203844
112	0xbd5fdc47	-0.054653432
113	0xbd5b00d4	-0.053467587
114	0x3de1d4c4	0.1102691
115	0xbd570a40	-0.05250001
116	0x3d59eae7	0.053202536
117	0x3d9c43b9	0.076301046
118	0x3de4c3bd	0.111701466
119	0xbd8fb13c	-0.07016227
120	0x3d1eb32c	0.03874509
121	0xbbeee178	-0.0072900616
122	0x3ddf98d0	0.109178185
123	0xbd8c5435	-0.06851999
124	0xbda5e1df	-0.08099722
125	0xbd0d292c	-0.034463093
126	0x3e06cb64	0.13163525
127	0xbbdd593e	-0.0067550233
128	0xbdfd492b	-0.12367471
129	0x3dd2993c	0.102831334
130	0xbd25724b	-0.0403922
131	0xbd4bfbf9	-0.049800847
132	0x3cacb778	0.021083578
133	0x3d406080	0.04696703
134	0x3d3c708d	0.046005774
135	0xbba3bb43	-0.0049966886
136	0xbd734f56	-0.059401833
137	0x3c80338b	0.015649578
138	0xbc841dab	-0.016127428
139	0x3be412a8	0.006960232
140	0x3e053d44	0.13011652
141	0x3d4bb5b3	0.04973383
142	0xbdddd00a	-0.10830696
143	0xbdd3cc4a	-0.103416994
144	0xbdb0a967	-0.08626061
145	0x3ddd3c13	0.10802474
146	0x3b9ca609	0.004780535
147	0xbd191609	-0.03737453
148	0xbd88963d	-0.06669281
149	0xbd0c5815	-0.03426369
150	0xbd2a307f	-0.041550156
151	0xbd791609	-0.06081203
152	0xbbb6485c	-0.005562825
153	0xbdae761a	-0.0851862
154	0xbdd66a80	-0.10469532
155	0xbc237cdc	-0.009978499
156	0xbdb9747d	-0.090554215
157	0xbc1b1e2a	-0.009467641
158	0x3cf8dc0c	0.030378364
159	0x3d2e79df	0.042596694
160	0x3a7b1916	0.0009578628
161	0x3d23a804	0.039955154
162	0x3d84e86f	0.06489646
163	0xbd810599	-0.06299896
164	0xbc2ab7b6	-0.010419777
165	0xbd400deb	-0.046888273
166	0x3c38bd0a	0.011275539
167	0xbcee177e	-0.029063936
168	0x3e1ebad6	0.1550096
169	0x3da07ab4	0.07835904
170	0x3d2a7ae2	0.041621096
171	0xbe5ba259	-0.2144865
172	0x3b10a946	0.002207355
173	0xbd292329	-0.041293297
174	0x3d54050f	0.051762637
175	0xbcba497c	-0.022740118
176	0xbc0aa3bc	-0.008461889
177	0xbd55de2e	-0.05221384
178	0xbd13d5bd	-0.03609251
179	0x3d5d457d	0.054021347
180	0x3d8b31ff	0.067966454
181	0x3d7e99b2	0.062158294
182	0xba8af98e	-0.0010602938
183	0xbe358044	-0.1772471
184	0x3d54e352	0.051974602
185	0xbdb78676	-0.08961193
186	0x3dbc3cab	0.09191259
187	0xbc3099b9	-0.010778838
188	0xbb73c96a	-0.003719891
189	0xba0e04a3	-0.0005417561
190	0x3df34a2f	0.11879384
191	0xbdb37c2c	-0.08763918
192	0x3d813ce0	0.06310439
193	0xbd6e4dcb	-0.058179658
194	0xbcf80c7c	-0.03027939
195	0x3cb2264c	0.021746777
196	0xbdbc0356	-0.09180324
197	0x3d812085	0.06305031
198	0x3db03081	0.086030014
199	0xbc19edde	-0.009395091
200	0xbd1f97ef	-0.038963255
201	0x3d160b81	0.036632065
202	0xbd8567b1	-0.06513918
203	0x3d7637fb	0.06011198
204	0x3d41e6ed	0.04733937
205	0x3d6a1bb7	0.057155337
206	0x3c7f9b1f	0.015600949
207	0xbd4fa3e2	-0.0506934
208	0xbd37070d	-0.04468446
209	0x3e10b219	0.14130439
210	0xbd6fb552	-0.05852253
211	0xbdbe234e	-0.092840776
212	0xbc4a01f4	-0.012329567
213	0xbcccd81f	-0.025005398
214	0xbd497f6d	-0.04919379
215	0x3c2b5a13	0.010458487
216	0x3bceaf52	0.006307521
217	0x3d6903f3	0.056888532
218	0xbd8d6ac3	-0.06905129
219	0xbdc4bcbc	-0.09606311
220	0x3dda28a1	0.106522806
221	0x3c203a41	0.009779514
222	0x3dfc300a	0.1231385
223	0x3dba17a7	0.090865426
224	0xbccf5132	-0.025307272
225	0x3dc8c8e1	0.098039396
226	0xbd1cfb17	-0.038325395
227	0x3c534e12	0.012897031
228	0xbd287af6	-0.04113289
229	0xbdb4dee8	-0.088315785
230	0xbd95433b	-0.07288214
231	0x3c9ffab4	0.019528724
232	0x3d77c17b	0.06048725
233	0x3ca69bcf	0.020337967
234	0xbd18942b	-0.03725068
235	0xbdf90a8b	-0.12160214
236	0xbdef992b	-0.11699136
237	0xbdbbdcfc	-0.09173009
238	0x3e0011b8	0.12506759
239	0x3ad976fe	0.0016591249
240	0xbd63380b	-0.05547337
241	0xbdbb6e4b	-0.09151896
242	0xbd28d2a3	-0.041216504
243	0x3d109afc	0.035304055
244	0x3bf60662	0.007508085
245	0x3db143e3	0.086555265
246	0x3d1da959	0.03849158
247	0xbdb271cb	-0.087131105
248	0x3d7c6a8f	0.06162506
249	0x3cd5b48d	0.02608707
250	0x3dcedbf1	0.10100544
251	0x3d3e469c	0.046454057
252	0xbb12d3a4	-0.002240398
253	0xbdce5bd7	-0.10076111
254	0x3d78530a	0.060626067
255	0x3cf62a6c	0.030049525

node_att.0.att f4 [1, 4, 128]
0	0xbdebbfd2	-0.11511196
1	0xbd9ed2a4	-0.0775502
2	0xbd923013	-0.07138076
3	0x3e270e7e	0.16314122
4	0xbd41d722	-0.047324307
5	0xbe0ffdaf	-0.14061616
6	0x3caffa36	0.021481615
7	0x3d802751	0.06257499
8	0xbde9e4f6	-0.11420624
9	0x3c74f3d0	0.014950708
10	0x3e0b2c5e	0.13591143
11	0xbda0dbab	-0.07854398
12	0x3c45ab24	0.012064729
13	0xbd8bdcba	-0.068292096
14	0x3cd2a633	0.025714016
15	0xbcdd3797	-0.027004046
16	0xbe3dc833	-0.18533401
17	0xbdbfdbe8	-0.09368116
18	0xbd0df536	-0.03465768
19	0x3e0de6ce	0.13857576
20	0x3c6a55f1	0.014302717
21	0xbdd2eb03	-0.10298731
22	0xbd0e8aaa	-0.03480021
23	0x3d1d628d	0.038424063
24	0xbe1d4c35	-0.15361102
25	0xbd9bbc77	-0.07604306
26	0xbe2de251	-0.16980864
27	0xbdcd2ccc	-0.1001831
28	0x3c7337d0	0.01484485
29	0x3dc4c0a9	0.096070595
30	0xbde79de0	-0.11309409
31	0xbd6db7fb	-0.058036786
32	0xbc2aabe9	-0.010416963
33	0xbc448d14	-0.011996526
34	0x3d148809	0.036262546
35	0xbe63013a	-0.22168437
36	0xbcd04939	-0.02542554
37	0x3dc92a1e	0.09822486
38	0xbda9c803	-0.08290102
39	0x3df20786	0.11817841
40	0xbd5db945	-0.054131765
41	0x3ba21fcb	0.0049476377
42	0x3e1b6f24	0.15179116
43	0xbd1a4368	-0.03766194
44	0xbd1272b5	-0.035753924
45	0xbdc808c1	-0.09767295
46	0x3d6ca43a	0.057773806
47	0x3e1cfcbc	0.15330786
48	0xbe2ae2a1	-0.16688015
49	0xbe069c7e	-0.13145635
50	0x3d30d4d9	0.043171737
51	0xbe31799a	-0.17331544
52	0x3e03eee8	0.12884104
53	0xbd1768ef	-0.036965307
54	0xbe5670db	-0.20941488
55	0xbd5a7bca	-0.05334071
56	0xbe02a254	-0.12757236
57	0x3e0e43f4	0.1389311
58	0x3d8091fc	0.06277844
59	0x3d3e4e4d	0.046461392
60	0x3bfed0fc	0.0077763777
61	0x3e6693cf	0.22517322
62	0xbdf8f5f1	-0.121562846
63	0xbcbf198b	-0.02332761
64	0x3ddf8e28	0.10915786
65	0xbd1770d9	-0.036972854
66	0xbc37edf1	-0.011226163
67	0x3dac3514	0.08408561
68	0xbcfa4b4a	-0.030553479
69	0xbdb9ba52	-0.09068741
70	0x3dfca27b	0.12335678
71	0xbe1a8071	-0.15088059
72	0x3e1c750b	0.15279023
73	0xbdd28509	-0.10279281
74	0x3cd09776	0.025462847
75	0xbe3f7349	-0.18696322
76	0x3c14018b	0.009033571
77	0x3d57e191	0.05270535
78	0xbe14510e	-0.14484045
79	0x3e11e5e7	0.14247857
80	0x3e445499	0.19172896
81	0xbe14a5b6	-0.14516339
82	0xbdad28a2	-0.08455016
83	0xbdac606b	-0.08416828
84	0xbe3cc31c	-0.18433803
85	0xbd805b8c	-0.06267461
86	0x3dac11da	0.084018424
87	0xbd6cfdde	-0.057859294
88	0x3cd23f53	0.025664961
89	0xbcb521fc	-0.022110932
90	0x3e366768	0.17812884
91	0x3cb526bd	0.022113198
92	0x3dd4d5fe	0.10392378
93	0xbd082156	-0.033234917
94	0xbdefec64	-0.1171501
95	0xbc94844a	-0.018129487
96	0x3d2316ad	0.039816547
97	0x3e19f514	0.15034896
98	0xbdcec83b	-0.10096785
99	0xbd2d041a	-0.04224024
100	0xbdd6e2f7	-0.10492509
101	0xbdfa2834	-0.122146994
102	0x3d8a1e30	0.06744039
103	0x3df683d8	0.12036866
104	0xbd0fe78f	-0.03513294
105	0x3d913608	0.07090384
106	0x3d7c3fa8	0.061584145
107	0x3de0c4d6	0.109750435
108	0xbe0f5c2c	-0.14000005
109	0x3d451097	0.048111524
110	0x3deaedf1	0.11471165
111	0xbdbbb996	-0.09166257
112	0x3d65aa01	0.05607033
113	0x3d393599	0.04521713
114	0xbe0161aa	-0.12634912
115	0xbd028235	-0.031862456
116	0x3de3d63b	0.111248456
117	0xbd33a639	-0.043859694
118	0xbe46deca	-0.19420925
119	0x3afee02e	0.0019445473
120	0xbd5117a2	-0.05104793
121	0x3e345f8b	0.17614572
122	0xbda941f3	-0.08264532
123	0xbd66c8fc	-0.056344017
124	0xbcb5c600	-0.02218914
125	0xbd1a0f90	-0.037612498
126	0xbe186e55	-0.14885838
127	0x3cc5e8e7	0.024158908
128	0x3d835f39	0.06414647
129	0x3da91638	0.08256191
130	0x3e170ed9	0.14751758
131	0xbd49280d	-0.04911046
132	0xbe360904	-0.17776877
133	0x3d1dba6e	0.03850787
134	0xbe2942d6	-0.16529402
135	0x3db46fea	0.088104084
136	0x3d6ec903	0.05829717
137	0xbdf95dfe	-0.12176131
138	0x3e0beed6	0.13665327
139	0xbe1d079d	-0.15334935
140	0x3d5ece50	0.054395974
141	0xbdcb3104	-0.09921458
142	0x3e3e4212	0.18579891
143	0xbdbff795	-0.093733944
144	0xbe2d0821	-0.16897632
145	0x3d540507	0.051762607
146	0xbdaf96b7	-0.085736685
147	0xbd532233	-0.051546287
148	0xbe2803ba	-0.16407672
149	0x3d6d0870	0.057869375
150	0x3db3601f	0.08758568
151	0x3c6f7a0c	0.014616501
152	0xbe315b9e	-0.17320105
153	0x3c9c8f42	0.01911128
154	0x3dc5761b	0.096416675
155	0xbe5b66f3	-0.21425991
156	0xbda8ee30	-0.08248556
157	0x3c79a410	0.015236869
158	0xbdcc10dc	-0.09964153
159	0xbe29eee6	-0.16595039
160	0xbe51df2e	-0.20495293
161	0xbd9242a9	-0.07141621
162	0x3d72797b	0.059197884
163	0xbdb2d953	-0.087328576
164	0x3cb7282f	0.022358028
165	0x3e3e211e	0.1856732
166	0x3d8ae99d	0.067828394
167	0xbd29850e	-0.041386656
168	0xbe052533	-0.13002472
169	0xbdfb929b	-0.12283822
170	0xbe2165d8	-0.15761507
171	0x3d887ad8	0.066640556
172	0x3ea4a065	0.3215362
173	0x3d0eace0	0.034832835
174	0xbe764575	-0.24049933
175	0x3cf6eb65	0.030141542
176	0x3d6f734c	0.058459565
177	0x3e174d2e	0.14775535
178	0x3caa2940	0.020771623
179	0x3dd0b972	0.10191621
180	0xbdd72418	-0.10504931
181	0x3e1a04bc	0.15040869
182	0xbd6fa9d7	-0.05851158
183	0xbdb32540	-0.08747339
184	0x3d0d52aa	0.034502663
185	0xbe4e1f90	-0.20129228
186	0xbc2e2eef	-0.010631307
187	0xbe8b561d	-0.27214137
188	0x3b45f062	0.0030203094
189	0xbe3ae0f6	-0.18249878
190	0x3e628422	0.22120717
191	0xbd92791c	-0.07152006
192	0x3dba0dfb	0.09084698
193	0x3d73d3a9	0.059528027
194	0x3da99db0	0.0828203
195	0x3df5084a	0.11964472
196	0xbc577659	-0.013150775
197	0x3d8e14d3	0.06937566
198	0xbda24873	-0.07923975
199	0xbe241514	-0.16023666
200	0x3dff862e	0.124767646
201	0xbdb0900a	-0.08621223
202	0xbdd4b3de	-0.103858694
203	0x3c8fd6d8	0.0175585
204	0xbdac38d3	-0.08409276
205	0x3da75d62	0.08172108
206	0x3c480551	0.012208299
207	0xbdb91d57	-0.09038799
208	0x3e1439aa	0.14475122
209	0xbe13c8c6	-0.14432058
210	0x3e10a65c	0.14125961
211	0x3b834c0a	0.0040068673
212	0x3b89b3d9	0.0042023477
213	0xbd4b45de	-0.049627177
214	0x3d8a915d	0.06766007
215	0x3c77e32b	0.015129845
216	0xbe032b0f	-0.12809394
217	0x3d366ea7	0.04453912
218	0xbd330003	-0.043701183
219	0x3e2686b3	0.16262321
220	0x3d9a8ec7	0.07546764
221	0x3c8c7e12	0.017149959
222	0xbe087cec	-0.13328904
223	0xbc7175c2	-0.014737548
224	0xbe0a15b3	-0.1348484
225	0x3df5b102	0.11996652
226	0x3c304614	0.010758895
227	0xbe12c729	-0.14333786
228	0x3da007ff	0.07814025
229	0x3d58ff30	0.05297774
230	0xbd91f9c6	-0.071277186
231	0x3d8d031e	0.0688536
232	0x3d4db5b8	0.05022213
233	0xbd7ecd4b	-0.0622075
234	0xbe13c7be	-0.14431664
235	0xbd57cafe	-0.052683823
236	0xbdd0d4ba	-0.10196824
237	0xbc53c140	-0.012924492
238	0xbd838c7b	-0.06423279
239	0xbd8dce27	-0.06924086
240	0x3c338c23	0.010958704
241	0xbe28aa95	-0.16471322
242	0xba55dc14	-0.00081580994
243	0x3c18784e	0.009306027
244	0xbc252b04	-0.0100810565
245	0xbce90e94	-0.028449334
246	0xbe1892e2	-0.14899781
247	0x3c194c43	0.009356561
248	0x3e4112c2	0.18854812
249	0xbe1a6d8b	-0.1508085
250	0xbdc315f1	-0.09525669
251	0xbe0850a2	-0.13312009
252	0xbdeb71da	-0.11496325
253	0xbd18abc8	-0.0372732
254	0x3bd9213c	0.0066262763
255	0xbdc577f5	-0.096420206

node_att.0.bias f4 [64]
0	0x3ac3bbac	0.001493325
1	0xbc9a947c	-0.018869631
2	0xbca2b08f	-0.01985958
3	0x3c6e35ac	0.014539164
4	0xbc322e3a	-0.010875279
5	0xbab5eac1	-0.0013879166
6	0xbc5be8f2	-0.013422238
7	0xbad5788d	-0.0016286537
8	0xbbc3053f	-0.005951553
9	0xbab9104f	-0.001411924
10	0x3bbaf59e	0.0057055494
11	0xbcfd858c	-0.03094747
12	0x3c6ade2b	0.0143351955
13	0xbca967ce	-0.02067938
14	0xbc29c018	-0.01036074
15	0x3a967d2e	0.0011481398
16	0x3be113f5	0.006868834
17	0x3c8cafd8	0.017173693
18	0x3ca37d1c	0.019957118
19	0xbc57f521	-0.013181002
20	0xbc30b946	-0.01078636
21	0xbc4eaf34	-0.012615014
22	0x3ac9f094	0.0015406781
23	0xbc3c2724	-0.011483941
24	0x3ba8b0ca	0.005148028
25	0x3c9d911c	0.019234233
26	0x3b20ca2b	0.0024534564
27	0xbbfbdb5b	-0.0076860613
28	0x3c55f830	0.013059661
29	0x3c0e573a	0.008687789
30	0xbc8dcb02	-0.017308716
31	0x3a5f5cd6	0.00085206085
32	0x3c830296	0.015992444
33	0x39ea6abf	0.0004471149
34	0xbb101359	-0.0021984188
35	0x3cbf4d1f	0.023352204
36	0xbc8e8e0d	-0.01740172
37	0xb9da4bfb	-0.0004163681
38	0xbb5445e1	-0.0032390284
39	0xb974d365	-0.00023348404
40	0xbc8727d7	-0.01649849
41	0xbc3a0fd3	-0.011356312
42	0x3bf5559f	0.0074870135
43	0x3bdecdd8	0.006799441
44	0x3bef1905	0.0072966837
45	0x3c4327f3	0.01191138
46	0xbb8585d4	-0.0040747914
47	0xbc8c52cb	-0.017129323
48	0xbb00d1a0	-0.0019656196
49	0x3c0a3cf6	0.008437386
50	0xba0c4ad5	-0.0005351727
51	0x3c6e5629	0.014546909
52	0xbbc508dd	-0.0060130195
53	0x3a16a846	0.00057471206
54	0xbbb934e2	-0.005652056
55	0xbb91bcd4	-0.004447559
56	0x3c2ad627	0.010427034
57	0x3c859a34	0.016308881
58	0x3b357157	0.0027685964
59	0x3c9d41ef	0.019196479
60	0xbc676178	-0.014122359
61	0xbc763efc	-0.015029665
62	0xba8256cc	-0.000994408
63	0xba4348b4	-0.0007449493

node_att.0.bn1.weight f4 [4]
0	0x3f82fadf	1.023281
1	0x3f6e83c9	0.9316984
2	0x3f8c08b9	1.0940162
3	0x3f8579d5	1.0427805

node_att.0.bn1.bias f4 [4]
0	0x3eda53ec	0.42642152
1	0x3ef35961	0.47529128
2	0x3e84af23	0.2591487
3	0x3e9dc32a	0.3081296

node_att.0.bn1.running_mean f4 [4]
0	0x3e5732c4	0.2101546
1	0x3e1bc6fe	0.15212628
2	0x3dcfe76e	0.101515636
3	0x3da77787	0.08177095

node_att.0.bn1.running_var f4 [4]
0	0x3b867da2	0.004104332
1	0x3b93d285	0.00451118
2	0x3b5d43a1	0.0033762234
3	0x3a91d9f6	0.001112758

node_att.1.W f4 [128, 256]
0	0x3d0a7e46	0.03381183
1	0xbbd26b49	-0.006421481
2	0xbc97608b	-0.018478652
3	0xbd0292d1	-0.031878296
4	0xbe850453	-0.25979862
5	0xbe02d9b0	-0.12778354
6	0xbcda29b8	-0.026631221
7	0xbc314de0	-0.0108217895
8	0x3c81ec4b	0.015859744
9	0xbc5caed4	-0.013469417
10	0x3de91266	0.11380462
11	0xbdc23d9c	-0.09484407
12	0x3d07b071	0.033127252
13	0xbd988046	-0.07446341
14	0x3c69fa97	0.014280937
15	0xbd7d60ee	-0.061860017
16	0xbd937ca0	-0.07201505
17	0xbd3c62f7	-0.045992818
18	0x3d3576e3	0.044302832
19	0x3cd5d0d1	0.026100548
20	0x3c99efd7	0.018791122
21	0xbe23f12f	-0.16009973
22	0x3d3dd9b6	0.046350203
23	0xbde48007	-0.11157232
24	0xbdd08e85	-0.101834334
25	0xbd9b51c6	-0.075839564
26	0x3e02d700	0.12777328
27	0x3defadb7	0.11703055
28	0xbca2ce02	-0.019873623
29	0xbda2ec80	-0.07955265
30	0x3d5c2482	0.053745754
31	0xbe0740cd	-0.13208313
32	0xbd1a6608	-0.03769496
33	0xbb89de34	-0.004207397
34	0x3d25a650	0.04044181
35	0xbd97bbf4	-0.07408896
36	0x3d2bf000	0.04197693
37	0xbc03b089	-0.008037695
38	0x3d92a50e	0.07160388
39	0xbd302018	-0.042999357
40	0xbc81d22f	-0.015847294
41	0xbd937545	-0.07200102
42	0xbd2b2494	-0.04178293
43	0x3d0e794a	0.03478364
44	0x3d2ec5be	0.04266905
45	0x3d448893	0.04798181
46	0xbde45498	-0.111489475
47	0xbcd570a8	-0.026054695
48	0x3cf8633d	0.030320758
49	0x3d3b4650	0.045721352
50	0xbd19d36b	-0.03755514
51	0x3d1aefda	0.037826397
52	0x3b6ab2dc	0.0035812175
53	0xbc6d5981	-0.014486671
54	0xbdbd33c3	-0.092383884
55	0xbd9787f1	-0.07398976
56	0xbdab47f9	-0.08363337
57	0x3d89906c	0.067169994
58	0xbd876023	-0.066101335
59	0x3c0dedd3	0.008662659
60	0xbc29ae52	-0.010356503
61	0x3d60de65	0.054899592
62	0x3d479de0	0.048734546
63	0x3c11abf6	0.008891096
64	0xbd8e53dc	-0.06949589
65	0xbc2684c5	-0.010163491
66	0x3d711281	0.058855537
67	0xbd9bf9dd	-0.07616017
68	0xbdede6b6	-0.1161627
69	0x3c0ae06f	0.008476361
70	0xbdea9ca6	-0.114556596
71	0xbd833efe	-0.06408499
72	0xbaabe59c	-0.0013114694
73	0xbd52d202	-0.05146981
74	0x3db2381e	0.0870211
75	0xbd35ef00	-0.04441738
76	0x3c3f2397	0.0116662
77	0xba28bd3d	-0.000643689
78	0xbd1de80c	-0.038551375
79	0xbd9f4063	-0.07775953
80	0xbcc8d10c	-0.024513744
81	0xbd1491d2	-0.036271878
82	0x3cf486b1	0.029849382
83	0xbc5feb5a	-0.013666952
84	0xbce5932d	-0.02802428
85	0xbdd21431	-0.102577575
86	0x3b851a9f	0.0040620114
87	0xbe43c439	-0.19117822
88	0x3d359caa	0.04433886
89	0x3c74d862	0.014944168
90	0x3d777b44	0.06042029
91	0x3dad3edd	0.08459256
92	0xbda5edb2	-0.081019774
93	0xbdb4be0b	-0.0882531
94	0xbcdccba6	-0.026952576
95	0xbd969245	-0.073521174
96	0x3db81c01	0.08989716
97	0x3df3e087	0.119080596
98	0x3caf6b6b	0.021413526
99	0xbc8af9d4	-0.01696483
100	0xb9b216b1	-0.00033967712
101	0x3d679c35	0.056545455
102	0x3e10d1c2	0.14142516
103	0xbcca7567	-0.024714185
104	0x3d236728	0.0398933
105	0x3c34352a	0.010999003
106	0xbe35b7fc	-0.17745966
107	0x3d6eaa89	0.058268104
108	0x3aecc7a2	0.0018064866
109	0xbd1d8c53	-0.0384639
110	0x3e58a43b	0.21156399
111	0xbdd2369b	-0.102643214
112	0x3e4a7095	0.19769509
113	0xbc2a7691	-0.010404245
114	0xbd32a230	-0.043611705
115	0x3a887a2b	0.0010412385
116	0xbd8f8965	-0.07008628
117	0xbc962b99	-0.018331336
118	0xbdcc5119	-0.09976406
119	0xbd87d47c	-0.06632325
120	0xbdcc23ce	-0.09967767
121	0x3db33856	0.087509796
122	0xbd44a63a	-0.04801009
123	0x3d6931ef	0.056932386
124	0xbde1976b	-0.11015209
125	0xbc3a143e	-0.011357365
126	0x3d3290c7	0.0435951
127	0xbd2249a1	-0.039621
128	0xbd797de2	-0.060911067
129	0x3a8afe11	0.0010604282
130	0xbd52af02	-0.05143643
131	0xbc491eaf	-0.012275382
132	0xbe01ea15	-0.12686951
133	0xbdb62c2c	-0.08895144
134	0xbd10bc19	-0.035335634
135	0x3d05a472	0.03262753
136	0x3d7d0bda	0.06177888
137	0x3b8f201c	0.0043678414
138	0xbd33882b	-0.04383103
139	0xbd7ed073	-0.06221051
140	0x3d6670e8	0.05626002
141	0xbd454c2a	-0.04816834
142	0x3c8fccf2	0.01755378
143	0xbd2d573f	-0.042319532
144	0x3b9ccc39	0.0047850874
145	0x3cf3228b	0.029679557
146	0x3cf560cb	0.029953381
147	0x3be741ef	0.0070574204
148	0xbc1e35b8	-0.009656362
149	0xbce195a3	-0.027537173
150	0xbb640828	-0.00347949
151	0xbd7c2814	-0.06156166
152	0xbd597c03	-0.053096782
153	0xbb4c7375	-0.0031196747
154	0x3e00d4e7	0.12581216
155	0xbccaf816	-0.0247765
156	0x3c0cf9a7	0.008604444
157	0xbd7c1c2e	-0.06155031
158	0x3d00eedc	0.031477794
159	0xbde0e39e	-0.109809145
160	0xbd8fe2c4	-0.07025674
161	0xbc529e6e	-0.012855155
162	0x3d61cbf5	0.05512615
163	0xbc95b456	-0.018274467
164	0xbb837d39	-0.0040127304
165	0x3da840af	0.082154624
166	0x3d86c83b	0.0658116
167	0xbd148304	-0.03625776
168	0xbd8bc1c8	-0.0682407
169	0xbdcd5f9b	-0.10028001
170	0xbe765dd2	-0.24059227
171	0x3d91bfb3	0.07116642
172	0xbda37d2d	-0.0798286
173	0xbda42111	-0.080141194
174	0xbd9b9cda	-0.075982764
175	0xbd0a92b5	-0.033831317
176	0xbad5ab21	-0.0016301611
177	0xbbd431bf	-0.0064756568
178	0xbd84e57f	-0.064890854
179	0x3d8fc3b3	0.070197485
180	0x3d21ddc3	0.03951813
181	0xbc9b9b01	-0.01899481
182	0xbdc04276	-0.093876764
183	0xbdb6398c	-0.08897695
184	0xbe16722d	-0.14691992
185	0x3c2c1045	0.010501926
186	0xbe5621d0	-0.20911336
187	0x3c8fa03f	0.017532466
188	0xbc8d8c56	-0.017278831
189	0x3cd452d9	0.025918411
190	0x3cda8217	0.02667336
191	0x3d84efc4	0.06491044
192	0xbd9250d2	-0.071443215
193	0x3ca8a7e6	0.020587873
194	0x3cd366d7	0.025805874
195	0xbd87ed11	-0.06637014
196	0xbd79a5e1	-0.06094921
197	0xbc539aee	-0.012915356
198	0x3d0076d3	0.03136332
199	0xbe3a5eab	-0.18200175
200	0x3e8639c6	0.26215953
201	0xbcc98623	-0.024600094
202	0xbd6c1d66	-0.057645224
203	0xbcd43d38	-0.025908098
204	0xbe395ee9	-0.18102612
205	0xbd0f8fa9	-0.035049114
206	0xbca585c2	-0.020205382
207	0xbd27f4cc	-0.04100494
208	0xbd903f28	-0.07043296
209	0x3cffc21f	0.031220494
210	0x3db8c87f	0.090226166
211	0x3cf4ba7b	0.029874077
212	0x3c51b349	0.012799093
213	0xbdb62930	-0.08894575
214	0xbcf65482	-0.030069593
215	0xbe50dddb	-0.20397131
216	0x3a0a5507	0.0005276952
217	0x3d00ca8c	0.031443164
218	0xbb3a38aa	-0.0028415122
219	0x3e08b85f	0.13351582
220	0x3e17baf3	0.14817409
221	0xbbe4a876	-0.00697809
222	0xbca3041a	-0.019899417
223	0xbce0b95d	-0.027432138
224	0xbdddc07c	-0.10827729
225	0x3c945b4b	0.018109938
226	0x3dadf037	0.08493083
227	0xbd9631f2	-0.07333745
228	0xbc6770d7	-0.014126024
229	0x3d546b61	0.051860217
230	0x3cec37ed	0.028835261
231	0xbcfb94f2	-0.030710671
232	0xbd497346	-0.0491822
233	0x3d577180	0.052598476
234	0xbc21c607	-0.009873874
235	0x3d9a68fe	0.07539557
236	0x3d5d2e13	0.053999018
237	0x3bbe067f	0.0057991142
238	0x3e0b0cb7	0.13579069
239	0x3d40e043	0.047088873
240	0xbc30fd36	-0.010802558
241	0x3ccd7057	0.025077982
242	0x3e88c8cc	0.26715696
243	0xbd871f58	-0.06597775
244	0x3e117d4c	0.14207953
245	0x3b890918	0.0041819923
246	0xbdbdf0b1	-0.09274424
247	0x3d5646aa	0.052313484
248	0xbd9e3ff6	-0.07727043
249	0x3c941438	0.018076047
250	0x3d0f1cd5	0.034939606
251	0x3ca85c71	0.020551892
252	0x3d8005af	0.06251084
253	0x3d05449f	0.032536145
254	0xbba3f946	-0.005004081
255	0x3d46ef07	0.048567798
